…
2020-07-06 19:37:21.238746: I tensorflow/compiler/xla/service/service.cc:176]   StreamExecutor device (0): Host, Default Version
2020-07-06 19:37:21.238948: I tensorflow/core/common_runtime/gpu/gpu_device.cc:1102] Device interconnect StreamExecutor with strength 1 edge matrix:
2020-07-06 19:37:21.239120: I tensorflow/core/common_runtime/gpu/gpu_device.cc:1108]
Model: "sequential"
_________________________________________________________________
Layer (type)                 Output Shape              Param #
=================================================================
conv2d (Conv2D)              (None, 70, 70, 16)        160
_________________________________________________________________
batch_normalization (BatchNo (None, 70, 70, 16)        64
_________________________________________________________________
max_pooling2d (MaxPooling2D) (None, 35, 35, 16)        0
_________________________________________________________________
conv2d_1 (Conv2D)            (None, 35, 35, 32)        4640
_________________________________________________________________
dropout (Dropout)            (None, 35, 35, 32)        0
_________________________________________________________________
batch_normalization_1 (Batch (None, 35, 35, 32)        128
_________________________________________________________________
max_pooling2d_1 (MaxPooling2 (None, 18, 18, 32)        0
_________________________________________________________________
conv2d_2 (Conv2D)            (None, 18, 18, 32)        9248
_________________________________________________________________
batch_normalization_2 (Batch (None, 18, 18, 32)        128
_________________________________________________________________
max_pooling2d_2 (MaxPooling2 (None, 9, 9, 32)          0
_________________________________________________________________
conv2d_3 (Conv2D)            (None, 9, 9, 64)          18496
_________________________________________________________________
dropout_1 (Dropout)          (None, 9, 9, 64)          0
_________________________________________________________________
batch_normalization_3 (Batch (None, 9, 9, 64)          256
_________________________________________________________________
max_pooling2d_3 (MaxPooling2 (None, 5, 5, 64)          0
_________________________________________________________________
conv2d_4 (Conv2D)            (None, 5, 5, 128)         73856
_________________________________________________________________
dropout_2 (Dropout)          (None, 5, 5, 128)         0
_________________________________________________________________
batch_normalization_4 (Batch (None, 5, 5, 128)         512
_________________________________________________________________
max_pooling2d_4 (MaxPooling2 (None, 3, 3, 128)         0
_________________________________________________________________
flatten (Flatten)            (None, 1152)              0
_________________________________________________________________
dense (Dense)                (None, 128)               147584
_________________________________________________________________
dropout_3 (Dropout)          (None, 128)               0
_________________________________________________________________
dense_1 (Dense)              (None, 3)                 387
=================================================================
Total params: 255,459
Trainable params: 254,915
Non-trainable params: 544
_________________________________________________________________
Epoch 1/25
133/133 [==============================] - 33s 251ms/step - loss: 0.9014 - accuracy: 0.6044 - val_loss: 2.6349 - val_accuracy: 0.4713 - lr: 0.0010
Epoch 2/25
133/133 [==============================] - 32s 240ms/step - loss: 0.7205 - accuracy: 0.6783 - val_loss: 2.4877 - val_accuracy: 0.4873 - lr: 0.0010
…
